…
2025-10-28 09:58:17,939 - INFO -   - embedding.0.weight: torch.Size([256, 256]) (65,536 ä¸ªå…ƒç´ )
2025-10-28 09:58:17,939 - INFO -   - embedding.0.bias: torch.Size([256]) (256 ä¸ªå…ƒç´ )
2025-10-28 09:58:17,939 - INFO -   - attention.0.weight: torch.Size([1, 262]) (262 ä¸ªå…ƒç´ )
2025-10-28 09:58:17,939 - INFO -   - attention.0.bias: torch.Size([1]) (1 ä¸ªå…ƒç´ )
2025-10-28 09:58:17,939 - INFO - TD3ä»£ç†åˆå§‹åŒ–å®Œæˆ
2025-10-28 09:58:17,939 - INFO - Actorç½‘ç»œæ¶æ„:Gru_Actor(
  (gru_predictor): GruPredictor_norm(
    (gru_norm): Identity()
    (gru): GRU(6, 256, batch_first=True, dropout=0.1)
    (fc_predict): Sequential(
      (0): Linear(in_features=256, out_features=6, bias=True)
    )
    (attention_norm): Identity()
    (embedding): Sequential(
      (0): Linear(in_features=256, out_features=256, bias=True)
    )
    (attention): Sequential(
      (0): Linear(in_features=262, out_features=1, bias=True)
    )
  )
  (output_layer): Sequential(
    (0): Linear(in_features=6, out_features=256, bias=True)
    (1): Identity()
    (2): ReLU()
    (3): Linear(in_features=256, out_features=1, bias=True)
    (4): Tanh()
  )
)
2025-10-28 09:58:17,940 - INFO - Criticç½‘ç»œæ¶æ„:Gru_Critic(
  (gru_predictor): GruPredictor_norm(
    (gru_norm): Identity()
    (gru): GRU(6, 256, batch_first=True, dropout=0.1)
    (fc_predict): Sequential(
      (0): Linear(in_features=256, out_features=6, bias=True)
    )
    (attention_norm): Identity()
    (embedding): Sequential(
      (0): Linear(in_features=256, out_features=256, bias=True)
    )
    (attention): Sequential(
      (0): Linear(in_features=262, out_features=1, bias=True)
    )
  )
  (state_norm): LayerNorm((6,), eps=1e-05, elementwise_affine=True)
  (fusion_layer): Sequential(
    (0): Linear(in_features=7, out_features=256, bias=True)
    (1): ReLU()
    (2): Linear(in_features=256, out_features=256, bias=True)
    (3): Identity()
    (4): ReLU()
    (5): Linear(in_features=256, out_features=1, bias=True)
  )
)
2025-10-28 09:58:17,940 - INFO - ç»éªŒå›æ”¾æ± åˆå§‹åŒ–å®Œæˆ
2025-10-28 09:58:35,038 - INFO - ## å½“å‰æ—¶é—´: 2025-10-28 09:58:35.038971
2025-10-28 09:58:35,038 - INFO - é¡¹ç›®ä¿å­˜ç›®å½•: .\savedata\1027ä¸æ„ŸçŸ¥æ—¶å»¶è®­ç»ƒï¼ˆæ­£å¼¦æ¿€åŠ±ä¸å½’ä¸€åŒ–ï¼Œé‡‡ç”¨ç®€å•ä»·å€¼ç½‘ç»œï¼Œå®¹å¿åº¦å¥–åŠ±å¤ç°è€ƒè™‘ååº”æ—¶é—´çš„S3ï¼‰
2025-10-28 09:58:35,038 - INFO - æ—¥å¿—æ–‡ä»¶: .\savedata\1027ä¸æ„ŸçŸ¥æ—¶å»¶è®­ç»ƒï¼ˆæ­£å¼¦æ¿€åŠ±ä¸å½’ä¸€åŒ–ï¼Œé‡‡ç”¨ç®€å•ä»·å€¼ç½‘ç»œï¼Œå®¹å¿åº¦å¥–åŠ±å¤ç°è€ƒè™‘ååº”æ—¶é—´çš„S3ï¼‰\training_log_20251028_095829.log
…
